use cuda
--- Test on custom ...
--- Finished loading model!
--- Pruning starts ...
--- Pruning ends ...
----------------------------------------------------------------
        Layer (type)               Output Shape         Param #
================================================================
            Conv2d-1         [-1, 19, 224, 224]             532
       BatchNorm2d-2         [-1, 19, 224, 224]              38
         LeakyReLU-3         [-1, 19, 224, 224]               0
 Conv_BN_LeakyReLU-4         [-1, 19, 224, 224]               0
            Conv2d-5         [-1, 19, 112, 112]           3,268
       BatchNorm2d-6         [-1, 19, 112, 112]              38
         LeakyReLU-7         [-1, 19, 112, 112]               0
 Conv_BN_LeakyReLU-8         [-1, 19, 112, 112]               0
            Conv2d-9         [-1, 38, 112, 112]           6,536
      BatchNorm2d-10         [-1, 38, 112, 112]              76
        LeakyReLU-11         [-1, 38, 112, 112]               0
Conv_BN_LeakyReLU-12         [-1, 38, 112, 112]               0
           Conv2d-13           [-1, 38, 56, 56]          13,034
      BatchNorm2d-14           [-1, 38, 56, 56]              76
        LeakyReLU-15           [-1, 38, 56, 56]               0
Conv_BN_LeakyReLU-16           [-1, 38, 56, 56]               0
           Conv2d-17           [-1, 76, 56, 56]          26,068
      BatchNorm2d-18           [-1, 76, 56, 56]             152
        LeakyReLU-19           [-1, 76, 56, 56]               0
Conv_BN_LeakyReLU-20           [-1, 76, 56, 56]               0
           Conv2d-21           [-1, 76, 28, 28]          52,060
      BatchNorm2d-22           [-1, 76, 28, 28]             152
        LeakyReLU-23           [-1, 76, 28, 28]               0
Conv_BN_LeakyReLU-24           [-1, 76, 28, 28]               0
           Conv2d-25          [-1, 153, 28, 28]         104,805
      BatchNorm2d-26          [-1, 153, 28, 28]             306
        LeakyReLU-27          [-1, 153, 28, 28]               0
Conv_BN_LeakyReLU-28          [-1, 153, 28, 28]               0
           Conv2d-29          [-1, 153, 14, 14]         210,834
      BatchNorm2d-30          [-1, 153, 14, 14]             306
        LeakyReLU-31          [-1, 153, 14, 14]               0
Conv_BN_LeakyReLU-32          [-1, 153, 14, 14]               0
           Conv2d-33          [-1, 307, 14, 14]         423,046
      BatchNorm2d-34          [-1, 307, 14, 14]             614
        LeakyReLU-35          [-1, 307, 14, 14]               0
Conv_BN_LeakyReLU-36          [-1, 307, 14, 14]               0
           Conv2d-37            [-1, 307, 7, 7]         848,548
      BatchNorm2d-38            [-1, 307, 7, 7]             614
        LeakyReLU-39            [-1, 307, 7, 7]               0
Conv_BN_LeakyReLU-40            [-1, 307, 7, 7]               0
     DarkNet_Tiny-41  [[-1, 76, 28, 28], [-1, 153, 14, 14], [-1, 307, 7, 7]]               0
           Conv2d-42            [-1, 307, 7, 7]         848,548
      BatchNorm2d-43            [-1, 307, 7, 7]             614
        LeakyReLU-44            [-1, 307, 7, 7]               0
           Conv2d-45            [-1, 307, 7, 7]               0
           Conv2d-46            [-1, 307, 7, 7]         848,548
      BatchNorm2d-47            [-1, 307, 7, 7]             614
        LeakyReLU-48            [-1, 307, 7, 7]               0
           Conv2d-49            [-1, 307, 7, 7]               0
           Conv2d-50            [-1, 307, 7, 7]         848,548
      BatchNorm2d-51            [-1, 307, 7, 7]             614
        LeakyReLU-52            [-1, 307, 7, 7]               0
           Conv2d-53            [-1, 307, 7, 7]               0
           Conv2d-54             [-1, 65, 7, 7]          20,020
================================================================
Total params: 4,258,609
Trainable params: 4,258,609
Non-trainable params: 0
----------------------------------------------------------------
Input size (MB): 0.57
Forward/backward pass size (MB): 205069861.76
Params size (MB): 16.25
Estimated Total Size (MB): 205069878.58
----------------------------------------------------------------
…
