7767517
28 28
Input            input0                   0 1 input0 0=224 1=224 2=3
Convolution      Conv_0                   1 1 input0 148 0=32 1=3 11=3 2=1 12=1 3=1 13=1 4=1 14=1 15=1 16=1 5=1 6=864
ReLU             LeakyRelu_1              1 1 148 110 0=1.000000e-01
Convolution      Conv_2                   1 1 110 151 0=32 1=3 11=3 2=1 12=1 3=2 13=2 4=1 14=1 15=1 16=1 5=1 6=9216
ReLU             LeakyRelu_3              1 1 151 113 0=1.000000e-01
Convolution      Conv_4                   1 1 113 154 0=64 1=3 11=3 2=1 12=1 3=1 13=1 4=1 14=1 15=1 16=1 5=1 6=18432
ReLU             LeakyRelu_5              1 1 154 116 0=1.000000e-01
Convolution      Conv_6                   1 1 116 157 0=64 1=3 11=3 2=1 12=1 3=2 13=2 4=1 14=1 15=1 16=1 5=1 6=36864
ReLU             LeakyRelu_7              1 1 157 119 0=1.000000e-01
Convolution      Conv_8                   1 1 119 160 0=128 1=3 11=3 2=1 12=1 3=1 13=1 4=1 14=1 15=1 16=1 5=1 6=73728
ReLU             LeakyRelu_9              1 1 160 122 0=1.000000e-01
Convolution      Conv_10                  1 1 122 163 0=128 1=3 11=3 2=1 12=1 3=2 13=2 4=1 14=1 15=1 16=1 5=1 6=147456
ReLU             LeakyRelu_11             1 1 163 125 0=1.000000e-01
Convolution      Conv_12                  1 1 125 166 0=256 1=3 11=3 2=1 12=1 3=1 13=1 4=1 14=1 15=1 16=1 5=1 6=294912
ReLU             LeakyRelu_13             1 1 166 128 0=1.000000e-01
Convolution      Conv_14                  1 1 128 169 0=256 1=3 11=3 2=1 12=1 3=2 13=2 4=1 14=1 15=1 16=1 5=1 6=589824
ReLU             LeakyRelu_15             1 1 169 131 0=1.000000e-01
Convolution      Conv_16                  1 1 131 172 0=512 1=3 11=3 2=1 12=1 3=1 13=1 4=1 14=1 15=1 16=1 5=1 6=1179648
ReLU             LeakyRelu_17             1 1 172 134 0=1.000000e-01
Convolution      Conv_18                  1 1 134 175 0=512 1=3 11=3 2=1 12=1 3=2 13=2 4=1 14=1 15=1 16=1 5=1 6=2359296
ReLU             LeakyRelu_19             1 1 175 137 0=1.000000e-01
Convolution      Conv_20                  1 1 137 178 0=512 1=3 11=3 2=1 12=1 3=1 13=1 4=1 14=1 15=1 16=1 5=1 6=2359296
ReLU             LeakyRelu_21             1 1 178 140 0=1.000000e-01
Convolution      Conv_22                  1 1 140 181 0=512 1=3 11=3 2=1 12=1 3=1 13=1 4=1 14=1 15=1 16=1 5=1 6=2359296
ReLU             LeakyRelu_23             1 1 181 143 0=1.000000e-01
Convolution      Conv_24                  1 1 143 184 0=512 1=3 11=3 2=1 12=1 3=1 13=1 4=1 14=1 15=1 16=1 5=1 6=2359296
ReLU             LeakyRelu_25             1 1 184 146 0=1.000000e-01
Convolution      Conv_26                  1 1 146 output0 0=65 1=1 11=1 2=1 12=1 3=1 13=1 4=0 14=0 15=0 16=0 5=1 6=33280
