use cuda
--- Test on custom ...
--- Finished loading model!
--- Pruning starts ...
--- Pruning ends ...
----------------------------------------------------------------
        Layer (type)               Output Shape         Param #
================================================================
            Conv2d-1         [-1, 12, 224, 224]             336
       BatchNorm2d-2         [-1, 12, 224, 224]              24
         LeakyReLU-3         [-1, 12, 224, 224]               0
 Conv_BN_LeakyReLU-4         [-1, 12, 224, 224]               0
            Conv2d-5         [-1, 12, 112, 112]           1,308
       BatchNorm2d-6         [-1, 12, 112, 112]              24
         LeakyReLU-7         [-1, 12, 112, 112]               0
 Conv_BN_LeakyReLU-8         [-1, 12, 112, 112]               0
            Conv2d-9         [-1, 25, 112, 112]           2,725
      BatchNorm2d-10         [-1, 25, 112, 112]              50
        LeakyReLU-11         [-1, 25, 112, 112]               0
Conv_BN_LeakyReLU-12         [-1, 25, 112, 112]               0
           Conv2d-13           [-1, 25, 56, 56]           5,650
      BatchNorm2d-14           [-1, 25, 56, 56]              50
        LeakyReLU-15           [-1, 25, 56, 56]               0
Conv_BN_LeakyReLU-16           [-1, 25, 56, 56]               0
           Conv2d-17           [-1, 51, 56, 56]          11,526
      BatchNorm2d-18           [-1, 51, 56, 56]             102
        LeakyReLU-19           [-1, 51, 56, 56]               0
Conv_BN_LeakyReLU-20           [-1, 51, 56, 56]               0
           Conv2d-21           [-1, 51, 28, 28]          23,460
      BatchNorm2d-22           [-1, 51, 28, 28]             102
        LeakyReLU-23           [-1, 51, 28, 28]               0
Conv_BN_LeakyReLU-24           [-1, 51, 28, 28]               0
           Conv2d-25          [-1, 102, 28, 28]          46,920
      BatchNorm2d-26          [-1, 102, 28, 28]             204
        LeakyReLU-27          [-1, 102, 28, 28]               0
Conv_BN_LeakyReLU-28          [-1, 102, 28, 28]               0
           Conv2d-29          [-1, 102, 14, 14]          93,738
      BatchNorm2d-30          [-1, 102, 14, 14]             204
        LeakyReLU-31          [-1, 102, 14, 14]               0
Conv_BN_LeakyReLU-32          [-1, 102, 14, 14]               0
           Conv2d-33          [-1, 204, 14, 14]         187,476
      BatchNorm2d-34          [-1, 204, 14, 14]             408
        LeakyReLU-35          [-1, 204, 14, 14]               0
Conv_BN_LeakyReLU-36          [-1, 204, 14, 14]               0
           Conv2d-37            [-1, 204, 7, 7]         374,748
      BatchNorm2d-38            [-1, 204, 7, 7]             408
        LeakyReLU-39            [-1, 204, 7, 7]               0
Conv_BN_LeakyReLU-40            [-1, 204, 7, 7]               0
     DarkNet_Tiny-41  [[-1, 51, 28, 28], [-1, 102, 14, 14], [-1, 204, 7, 7]]               0
           Conv2d-42            [-1, 204, 7, 7]         374,748
      BatchNorm2d-43            [-1, 204, 7, 7]             408
        LeakyReLU-44            [-1, 204, 7, 7]               0
           Conv2d-45            [-1, 204, 7, 7]               0
           Conv2d-46            [-1, 204, 7, 7]         374,748
      BatchNorm2d-47            [-1, 204, 7, 7]             408
        LeakyReLU-48            [-1, 204, 7, 7]               0
           Conv2d-49            [-1, 204, 7, 7]               0
           Conv2d-50            [-1, 204, 7, 7]         374,748
      BatchNorm2d-51            [-1, 204, 7, 7]             408
        LeakyReLU-52            [-1, 204, 7, 7]               0
           Conv2d-53            [-1, 204, 7, 7]               0
           Conv2d-54             [-1, 65, 7, 7]          13,325
================================================================
Total params: 1,888,256
Trainable params: 1,888,256
Non-trainable params: 0
----------------------------------------------------------------
Input size (MB): 0.57
Forward/backward pass size (MB): 60961989.90
Params size (MB): 7.20
Estimated Total Size (MB): 60961997.68
----------------------------------------------------------------
…
