use cuda
--- Test on custom ...
--- Finished loading model!
--- Pruning starts ...
--- Pruning ends ...
----------------------------------------------------------------
        Layer (type)               Output Shape         Param #
================================================================
            Conv2d-1         [-1, 25, 224, 224]             700
       BatchNorm2d-2         [-1, 25, 224, 224]              50
         LeakyReLU-3         [-1, 25, 224, 224]               0
 Conv_BN_LeakyReLU-4         [-1, 25, 224, 224]               0
            Conv2d-5         [-1, 25, 112, 112]           5,650
       BatchNorm2d-6         [-1, 25, 112, 112]              50
         LeakyReLU-7         [-1, 25, 112, 112]               0
 Conv_BN_LeakyReLU-8         [-1, 25, 112, 112]               0
            Conv2d-9         [-1, 51, 112, 112]          11,526
      BatchNorm2d-10         [-1, 51, 112, 112]             102
        LeakyReLU-11         [-1, 51, 112, 112]               0
Conv_BN_LeakyReLU-12         [-1, 51, 112, 112]               0
           Conv2d-13           [-1, 51, 56, 56]          23,460
      BatchNorm2d-14           [-1, 51, 56, 56]             102
        LeakyReLU-15           [-1, 51, 56, 56]               0
Conv_BN_LeakyReLU-16           [-1, 51, 56, 56]               0
           Conv2d-17          [-1, 102, 56, 56]          46,920
      BatchNorm2d-18          [-1, 102, 56, 56]             204
        LeakyReLU-19          [-1, 102, 56, 56]               0
Conv_BN_LeakyReLU-20          [-1, 102, 56, 56]               0
           Conv2d-21          [-1, 102, 28, 28]          93,738
      BatchNorm2d-22          [-1, 102, 28, 28]             204
        LeakyReLU-23          [-1, 102, 28, 28]               0
Conv_BN_LeakyReLU-24          [-1, 102, 28, 28]               0
           Conv2d-25          [-1, 204, 28, 28]         187,476
      BatchNorm2d-26          [-1, 204, 28, 28]             408
        LeakyReLU-27          [-1, 204, 28, 28]               0
Conv_BN_LeakyReLU-28          [-1, 204, 28, 28]               0
           Conv2d-29          [-1, 204, 14, 14]         374,748
      BatchNorm2d-30          [-1, 204, 14, 14]             408
        LeakyReLU-31          [-1, 204, 14, 14]               0
Conv_BN_LeakyReLU-32          [-1, 204, 14, 14]               0
           Conv2d-33          [-1, 409, 14, 14]         751,333
      BatchNorm2d-34          [-1, 409, 14, 14]             818
        LeakyReLU-35          [-1, 409, 14, 14]               0
Conv_BN_LeakyReLU-36          [-1, 409, 14, 14]               0
           Conv2d-37            [-1, 409, 7, 7]       1,505,938
      BatchNorm2d-38            [-1, 409, 7, 7]             818
        LeakyReLU-39            [-1, 409, 7, 7]               0
Conv_BN_LeakyReLU-40            [-1, 409, 7, 7]               0
     DarkNet_Tiny-41  [[-1, 102, 28, 28], [-1, 204, 14, 14], [-1, 409, 7, 7]]               0
           Conv2d-42            [-1, 409, 7, 7]       1,505,938
      BatchNorm2d-43            [-1, 409, 7, 7]             818
        LeakyReLU-44            [-1, 409, 7, 7]               0
           Conv2d-45            [-1, 409, 7, 7]               0
           Conv2d-46            [-1, 409, 7, 7]       1,505,938
      BatchNorm2d-47            [-1, 409, 7, 7]             818
        LeakyReLU-48            [-1, 409, 7, 7]               0
           Conv2d-49            [-1, 409, 7, 7]               0
           Conv2d-50            [-1, 409, 7, 7]       1,505,938
      BatchNorm2d-51            [-1, 409, 7, 7]             818
        LeakyReLU-52            [-1, 409, 7, 7]               0
           Conv2d-53            [-1, 409, 7, 7]               0
           Conv2d-54             [-1, 65, 7, 7]          26,650
================================================================
Total params: 7,551,571
Trainable params: 7,551,571
Non-trainable params: 0
----------------------------------------------------------------
Input size (MB): 0.57
Forward/backward pass size (MB): 488890974.54
Params size (MB): 28.81
Estimated Total Size (MB): 488891003.92
----------------------------------------------------------------
…
