use cuda
--- Test on custom ...
--- Finished loading model!
--- Pruning starts ...
--- Pruning ends ...
----------------------------------------------------------------
        Layer (type)               Output Shape         Param #
================================================================
            Conv2d-1          [-1, 9, 224, 224]             252
       BatchNorm2d-2          [-1, 9, 224, 224]              18
         LeakyReLU-3          [-1, 9, 224, 224]               0
 Conv_BN_LeakyReLU-4          [-1, 9, 224, 224]               0
            Conv2d-5          [-1, 9, 112, 112]             738
       BatchNorm2d-6          [-1, 9, 112, 112]              18
         LeakyReLU-7          [-1, 9, 112, 112]               0
 Conv_BN_LeakyReLU-8          [-1, 9, 112, 112]               0
            Conv2d-9         [-1, 19, 112, 112]           1,558
      BatchNorm2d-10         [-1, 19, 112, 112]              38
        LeakyReLU-11         [-1, 19, 112, 112]               0
Conv_BN_LeakyReLU-12         [-1, 19, 112, 112]               0
           Conv2d-13           [-1, 19, 56, 56]           3,268
      BatchNorm2d-14           [-1, 19, 56, 56]              38
        LeakyReLU-15           [-1, 19, 56, 56]               0
Conv_BN_LeakyReLU-16           [-1, 19, 56, 56]               0
           Conv2d-17           [-1, 38, 56, 56]           6,536
      BatchNorm2d-18           [-1, 38, 56, 56]              76
        LeakyReLU-19           [-1, 38, 56, 56]               0
Conv_BN_LeakyReLU-20           [-1, 38, 56, 56]               0
           Conv2d-21           [-1, 38, 28, 28]          13,034
      BatchNorm2d-22           [-1, 38, 28, 28]              76
        LeakyReLU-23           [-1, 38, 28, 28]               0
Conv_BN_LeakyReLU-24           [-1, 38, 28, 28]               0
           Conv2d-25           [-1, 76, 28, 28]          26,068
      BatchNorm2d-26           [-1, 76, 28, 28]             152
        LeakyReLU-27           [-1, 76, 28, 28]               0
Conv_BN_LeakyReLU-28           [-1, 76, 28, 28]               0
           Conv2d-29           [-1, 76, 14, 14]          52,060
      BatchNorm2d-30           [-1, 76, 14, 14]             152
        LeakyReLU-31           [-1, 76, 14, 14]               0
Conv_BN_LeakyReLU-32           [-1, 76, 14, 14]               0
           Conv2d-33          [-1, 153, 14, 14]         104,805
      BatchNorm2d-34          [-1, 153, 14, 14]             306
        LeakyReLU-35          [-1, 153, 14, 14]               0
Conv_BN_LeakyReLU-36          [-1, 153, 14, 14]               0
           Conv2d-37            [-1, 153, 7, 7]         210,834
      BatchNorm2d-38            [-1, 153, 7, 7]             306
        LeakyReLU-39            [-1, 153, 7, 7]               0
Conv_BN_LeakyReLU-40            [-1, 153, 7, 7]               0
     DarkNet_Tiny-41  [[-1, 38, 28, 28], [-1, 76, 14, 14], [-1, 153, 7, 7]]               0
           Conv2d-42            [-1, 153, 7, 7]         210,834
      BatchNorm2d-43            [-1, 153, 7, 7]             306
        LeakyReLU-44            [-1, 153, 7, 7]               0
           Conv2d-45            [-1, 153, 7, 7]               0
           Conv2d-46            [-1, 153, 7, 7]         210,834
      BatchNorm2d-47            [-1, 153, 7, 7]             306
        LeakyReLU-48            [-1, 153, 7, 7]               0
           Conv2d-49            [-1, 153, 7, 7]               0
           Conv2d-50            [-1, 153, 7, 7]         210,834
      BatchNorm2d-51            [-1, 153, 7, 7]             306
        LeakyReLU-52            [-1, 153, 7, 7]               0
           Conv2d-53            [-1, 153, 7, 7]               0
           Conv2d-54             [-1, 65, 7, 7]          10,010
================================================================
Total params: 1,063,763
Trainable params: 1,063,763
Non-trainable params: 0
----------------------------------------------------------------
Input size (MB): 0.57
Forward/backward pass size (MB): 25383266.31
Params size (MB): 4.06
Estimated Total Size (MB): 25383270.94
----------------------------------------------------------------
…
