use cuda
--- Test on custom ...
--- Finished loading model!
--- Pruning starts ...
--- Pruning ends ...
----------------------------------------------------------------
        Layer (type)               Output Shape         Param #
================================================================
            Conv2d-1          [-1, 6, 224, 224]             168
       BatchNorm2d-2          [-1, 6, 224, 224]              12
         LeakyReLU-3          [-1, 6, 224, 224]               0
 Conv_BN_LeakyReLU-4          [-1, 6, 224, 224]               0
            Conv2d-5          [-1, 6, 112, 112]             330
       BatchNorm2d-6          [-1, 6, 112, 112]              12
         LeakyReLU-7          [-1, 6, 112, 112]               0
 Conv_BN_LeakyReLU-8          [-1, 6, 112, 112]               0
            Conv2d-9         [-1, 12, 112, 112]             660
      BatchNorm2d-10         [-1, 12, 112, 112]              24
        LeakyReLU-11         [-1, 12, 112, 112]               0
Conv_BN_LeakyReLU-12         [-1, 12, 112, 112]               0
           Conv2d-13           [-1, 12, 56, 56]           1,308
      BatchNorm2d-14           [-1, 12, 56, 56]              24
        LeakyReLU-15           [-1, 12, 56, 56]               0
Conv_BN_LeakyReLU-16           [-1, 12, 56, 56]               0
           Conv2d-17           [-1, 25, 56, 56]           2,725
      BatchNorm2d-18           [-1, 25, 56, 56]              50
        LeakyReLU-19           [-1, 25, 56, 56]               0
Conv_BN_LeakyReLU-20           [-1, 25, 56, 56]               0
           Conv2d-21           [-1, 25, 28, 28]           5,650
      BatchNorm2d-22           [-1, 25, 28, 28]              50
        LeakyReLU-23           [-1, 25, 28, 28]               0
Conv_BN_LeakyReLU-24           [-1, 25, 28, 28]               0
           Conv2d-25           [-1, 51, 28, 28]          11,526
      BatchNorm2d-26           [-1, 51, 28, 28]             102
        LeakyReLU-27           [-1, 51, 28, 28]               0
Conv_BN_LeakyReLU-28           [-1, 51, 28, 28]               0
           Conv2d-29           [-1, 51, 14, 14]          23,460
      BatchNorm2d-30           [-1, 51, 14, 14]             102
        LeakyReLU-31           [-1, 51, 14, 14]               0
Conv_BN_LeakyReLU-32           [-1, 51, 14, 14]               0
           Conv2d-33          [-1, 102, 14, 14]          46,920
      BatchNorm2d-34          [-1, 102, 14, 14]             204
        LeakyReLU-35          [-1, 102, 14, 14]               0
Conv_BN_LeakyReLU-36          [-1, 102, 14, 14]               0
           Conv2d-37            [-1, 102, 7, 7]          93,738
      BatchNorm2d-38            [-1, 102, 7, 7]             204
        LeakyReLU-39            [-1, 102, 7, 7]               0
Conv_BN_LeakyReLU-40            [-1, 102, 7, 7]               0
     DarkNet_Tiny-41  [[-1, 25, 28, 28], [-1, 51, 14, 14], [-1, 102, 7, 7]]               0
           Conv2d-42            [-1, 102, 7, 7]          93,738
      BatchNorm2d-43            [-1, 102, 7, 7]             204
        LeakyReLU-44            [-1, 102, 7, 7]               0
           Conv2d-45            [-1, 102, 7, 7]               0
           Conv2d-46            [-1, 102, 7, 7]          93,738
      BatchNorm2d-47            [-1, 102, 7, 7]             204
        LeakyReLU-48            [-1, 102, 7, 7]               0
           Conv2d-49            [-1, 102, 7, 7]               0
           Conv2d-50            [-1, 102, 7, 7]          93,738
      BatchNorm2d-51            [-1, 102, 7, 7]             204
        LeakyReLU-52            [-1, 102, 7, 7]               0
           Conv2d-53            [-1, 102, 7, 7]               0
           Conv2d-54             [-1, 65, 7, 7]           6,695
================================================================
Total params: 475,790
Trainable params: 475,790
Non-trainable params: 0
----------------------------------------------------------------
Input size (MB): 0.57
Forward/backward pass size (MB): 7470849.38
Params size (MB): 1.81
Estimated Total Size (MB): 7470851.77
----------------------------------------------------------------
Testing image 1/120....
…
