use cuda
--- Test on custom ...
--- Finished loading model!
--- Pruning starts ...
--- Pruning ends ...
----------------------------------------------------------------
        Layer (type)               Output Shape         Param #
================================================================
            Conv2d-1         [-1, 22, 224, 224]             616
       BatchNorm2d-2         [-1, 22, 224, 224]              44
         LeakyReLU-3         [-1, 22, 224, 224]               0
 Conv_BN_LeakyReLU-4         [-1, 22, 224, 224]               0
            Conv2d-5         [-1, 22, 112, 112]           4,378
       BatchNorm2d-6         [-1, 22, 112, 112]              44
         LeakyReLU-7         [-1, 22, 112, 112]               0
 Conv_BN_LeakyReLU-8         [-1, 22, 112, 112]               0
            Conv2d-9         [-1, 44, 112, 112]           8,756
      BatchNorm2d-10         [-1, 44, 112, 112]              88
        LeakyReLU-11         [-1, 44, 112, 112]               0
Conv_BN_LeakyReLU-12         [-1, 44, 112, 112]               0
           Conv2d-13           [-1, 44, 56, 56]          17,468
      BatchNorm2d-14           [-1, 44, 56, 56]              88
        LeakyReLU-15           [-1, 44, 56, 56]               0
Conv_BN_LeakyReLU-16           [-1, 44, 56, 56]               0
           Conv2d-17           [-1, 89, 56, 56]          35,333
      BatchNorm2d-18           [-1, 89, 56, 56]             178
        LeakyReLU-19           [-1, 89, 56, 56]               0
Conv_BN_LeakyReLU-20           [-1, 89, 56, 56]               0
           Conv2d-21           [-1, 89, 28, 28]          71,378
      BatchNorm2d-22           [-1, 89, 28, 28]             178
        LeakyReLU-23           [-1, 89, 28, 28]               0
Conv_BN_LeakyReLU-24           [-1, 89, 28, 28]               0
           Conv2d-25          [-1, 179, 28, 28]         143,558
      BatchNorm2d-26          [-1, 179, 28, 28]             358
        LeakyReLU-27          [-1, 179, 28, 28]               0
Conv_BN_LeakyReLU-28          [-1, 179, 28, 28]               0
           Conv2d-29          [-1, 179, 14, 14]         288,548
      BatchNorm2d-30          [-1, 179, 14, 14]             358
        LeakyReLU-31          [-1, 179, 14, 14]               0
Conv_BN_LeakyReLU-32          [-1, 179, 14, 14]               0
           Conv2d-33          [-1, 358, 14, 14]         577,096
      BatchNorm2d-34          [-1, 358, 14, 14]             716
        LeakyReLU-35          [-1, 358, 14, 14]               0
Conv_BN_LeakyReLU-36          [-1, 358, 14, 14]               0
           Conv2d-37            [-1, 358, 7, 7]       1,153,834
      BatchNorm2d-38            [-1, 358, 7, 7]             716
        LeakyReLU-39            [-1, 358, 7, 7]               0
Conv_BN_LeakyReLU-40            [-1, 358, 7, 7]               0
     DarkNet_Tiny-41  [[-1, 89, 28, 28], [-1, 179, 14, 14], [-1, 358, 7, 7]]               0
           Conv2d-42            [-1, 358, 7, 7]       1,153,834
      BatchNorm2d-43            [-1, 358, 7, 7]             716
        LeakyReLU-44            [-1, 358, 7, 7]               0
           Conv2d-45            [-1, 358, 7, 7]               0
           Conv2d-46            [-1, 358, 7, 7]       1,153,834
      BatchNorm2d-47            [-1, 358, 7, 7]             716
        LeakyReLU-48            [-1, 358, 7, 7]               0
           Conv2d-49            [-1, 358, 7, 7]               0
           Conv2d-50            [-1, 358, 7, 7]       1,153,834
      BatchNorm2d-51            [-1, 358, 7, 7]             716
        LeakyReLU-52            [-1, 358, 7, 7]               0
           Conv2d-53            [-1, 358, 7, 7]               0
           Conv2d-54             [-1, 65, 7, 7]          23,335
================================================================
Total params: 5,790,718
Trainable params: 5,790,718
Non-trainable params: 0
----------------------------------------------------------------
Input size (MB): 0.57
Forward/backward pass size (MB): 327630604.18
Params size (MB): 22.09
Estimated Total Size (MB): 327630626.84
----------------------------------------------------------------
…
