use cuda
--- Test on custom ...
--- Finished loading model!
--- Pruning starts ...
--- Pruning ends ...
----------------------------------------------------------------
        Layer (type)               Output Shape         Param #
================================================================
            Conv2d-1         [-1, 22, 224, 224]             616
       BatchNorm2d-2         [-1, 22, 224, 224]              44
         LeakyReLU-3         [-1, 22, 224, 224]               0
 Conv_BN_LeakyReLU-4         [-1, 22, 224, 224]               0
            Conv2d-5         [-1, 22, 112, 112]           4,378
       BatchNorm2d-6         [-1, 22, 112, 112]              44
         LeakyReLU-7         [-1, 22, 112, 112]               0
 Conv_BN_LeakyReLU-8         [-1, 22, 112, 112]               0
            Conv2d-9         [-1, 45, 112, 112]           8,955
      BatchNorm2d-10         [-1, 45, 112, 112]              90
        LeakyReLU-11         [-1, 45, 112, 112]               0
Conv_BN_LeakyReLU-12         [-1, 45, 112, 112]               0
           Conv2d-13           [-1, 45, 56, 56]          18,270
      BatchNorm2d-14           [-1, 45, 56, 56]              90
        LeakyReLU-15           [-1, 45, 56, 56]               0
Conv_BN_LeakyReLU-16           [-1, 45, 56, 56]               0
           Conv2d-17           [-1, 92, 56, 56]          37,352
      BatchNorm2d-18           [-1, 92, 56, 56]             184
        LeakyReLU-19           [-1, 92, 56, 56]               0
Conv_BN_LeakyReLU-20           [-1, 92, 56, 56]               0
           Conv2d-21           [-1, 92, 28, 28]          76,268
      BatchNorm2d-22           [-1, 92, 28, 28]             184
        LeakyReLU-23           [-1, 92, 28, 28]               0
Conv_BN_LeakyReLU-24           [-1, 92, 28, 28]               0
           Conv2d-25          [-1, 186, 28, 28]         154,194
      BatchNorm2d-26          [-1, 186, 28, 28]             372
        LeakyReLU-27          [-1, 186, 28, 28]               0
Conv_BN_LeakyReLU-28          [-1, 186, 28, 28]               0
           Conv2d-29          [-1, 186, 14, 14]         311,550
      BatchNorm2d-30          [-1, 186, 14, 14]             372
        LeakyReLU-31          [-1, 186, 14, 14]               0
Conv_BN_LeakyReLU-32          [-1, 186, 14, 14]               0
           Conv2d-33          [-1, 372, 14, 14]         623,100
      BatchNorm2d-34          [-1, 372, 14, 14]             744
        LeakyReLU-35          [-1, 372, 14, 14]               0
Conv_BN_LeakyReLU-36          [-1, 372, 14, 14]               0
           Conv2d-37            [-1, 372, 7, 7]       1,245,828
      BatchNorm2d-38            [-1, 372, 7, 7]             744
        LeakyReLU-39            [-1, 372, 7, 7]               0
Conv_BN_LeakyReLU-40            [-1, 372, 7, 7]               0
     DarkNet_Tiny-41  [[-1, 92, 28, 28], [-1, 186, 14, 14], [-1, 372, 7, 7]]               0
           Conv2d-42            [-1, 372, 7, 7]       1,245,828
      BatchNorm2d-43            [-1, 372, 7, 7]             744
        LeakyReLU-44            [-1, 372, 7, 7]               0
           Conv2d-45            [-1, 372, 7, 7]               0
           Conv2d-46            [-1, 372, 7, 7]       1,245,828
      BatchNorm2d-47            [-1, 372, 7, 7]             744
        LeakyReLU-48            [-1, 372, 7, 7]               0
           Conv2d-49            [-1, 372, 7, 7]               0
           Conv2d-50            [-1, 372, 7, 7]       1,245,828
      BatchNorm2d-51            [-1, 372, 7, 7]             744
        LeakyReLU-52            [-1, 372, 7, 7]               0
           Conv2d-53            [-1, 372, 7, 7]               0
           Conv2d-54             [-1, 65, 7, 7]          24,245
================================================================
Total params: 6,247,340
Trainable params: 6,247,340
Non-trainable params: 0
----------------------------------------------------------------
Input size (MB): 0.57
Forward/backward pass size (MB): 365680750.67
Params size (MB): 23.83
Estimated Total Size (MB): 365680775.08
----------------------------------------------------------------
…
