use cuda
--- Test on custom ...
--- Finished loading model!
--- Pruning starts ...
--- Pruning ends ...
----------------------------------------------------------------
        Layer (type)               Output Shape         Param #
================================================================
            Conv2d-1         [-1, 28, 224, 224]             784
       BatchNorm2d-2         [-1, 28, 224, 224]              56
         LeakyReLU-3         [-1, 28, 224, 224]               0
 Conv_BN_LeakyReLU-4         [-1, 28, 224, 224]               0
            Conv2d-5         [-1, 28, 112, 112]           7,084
       BatchNorm2d-6         [-1, 28, 112, 112]              56
         LeakyReLU-7         [-1, 28, 112, 112]               0
 Conv_BN_LeakyReLU-8         [-1, 28, 112, 112]               0
            Conv2d-9         [-1, 57, 112, 112]          14,421
      BatchNorm2d-10         [-1, 57, 112, 112]             114
        LeakyReLU-11         [-1, 57, 112, 112]               0
Conv_BN_LeakyReLU-12         [-1, 57, 112, 112]               0
           Conv2d-13           [-1, 57, 56, 56]          29,298
      BatchNorm2d-14           [-1, 57, 56, 56]             114
        LeakyReLU-15           [-1, 57, 56, 56]               0
Conv_BN_LeakyReLU-16           [-1, 57, 56, 56]               0
           Conv2d-17          [-1, 115, 56, 56]          59,110
      BatchNorm2d-18          [-1, 115, 56, 56]             230
        LeakyReLU-19          [-1, 115, 56, 56]               0
Conv_BN_LeakyReLU-20          [-1, 115, 56, 56]               0
           Conv2d-21          [-1, 115, 28, 28]         119,140
      BatchNorm2d-22          [-1, 115, 28, 28]             230
        LeakyReLU-23          [-1, 115, 28, 28]               0
Conv_BN_LeakyReLU-24          [-1, 115, 28, 28]               0
           Conv2d-25          [-1, 230, 28, 28]         238,280
      BatchNorm2d-26          [-1, 230, 28, 28]             460
        LeakyReLU-27          [-1, 230, 28, 28]               0
Conv_BN_LeakyReLU-28          [-1, 230, 28, 28]               0
           Conv2d-29          [-1, 230, 14, 14]         476,330
      BatchNorm2d-30          [-1, 230, 14, 14]             460
        LeakyReLU-31          [-1, 230, 14, 14]               0
Conv_BN_LeakyReLU-32          [-1, 230, 14, 14]               0
           Conv2d-33          [-1, 460, 14, 14]         952,660
      BatchNorm2d-34          [-1, 460, 14, 14]             920
        LeakyReLU-35          [-1, 460, 14, 14]               0
Conv_BN_LeakyReLU-36          [-1, 460, 14, 14]               0
           Conv2d-37            [-1, 460, 7, 7]       1,904,860
      BatchNorm2d-38            [-1, 460, 7, 7]             920
        LeakyReLU-39            [-1, 460, 7, 7]               0
Conv_BN_LeakyReLU-40            [-1, 460, 7, 7]               0
     DarkNet_Tiny-41  [[-1, 115, 28, 28], [-1, 230, 14, 14], [-1, 460, 7, 7]]               0
           Conv2d-42            [-1, 460, 7, 7]       1,904,860
      BatchNorm2d-43            [-1, 460, 7, 7]             920
        LeakyReLU-44            [-1, 460, 7, 7]               0
           Conv2d-45            [-1, 460, 7, 7]               0
           Conv2d-46            [-1, 460, 7, 7]       1,904,860
      BatchNorm2d-47            [-1, 460, 7, 7]             920
        LeakyReLU-48            [-1, 460, 7, 7]               0
           Conv2d-49            [-1, 460, 7, 7]               0
           Conv2d-50            [-1, 460, 7, 7]       1,904,860
      BatchNorm2d-51            [-1, 460, 7, 7]             920
        LeakyReLU-52            [-1, 460, 7, 7]               0
           Conv2d-53            [-1, 460, 7, 7]               0
           Conv2d-54             [-1, 65, 7, 7]          29,965
================================================================
Total params: 9,552,832
Trainable params: 9,552,832
Non-trainable params: 0
----------------------------------------------------------------
Input size (MB): 0.57
Forward/backward pass size (MB): 698943165.14
Params size (MB): 36.44
Estimated Total Size (MB): 698943202.15
----------------------------------------------------------------
…
