use cuda
--- Test on custom ...
--- Finished loading model!
--- Pruning starts ...
--- Pruning ends ...
----------------------------------------------------------------
        Layer (type)               Output Shape         Param #
================================================================
            Conv2d-1          [-1, 3, 224, 224]              84
       BatchNorm2d-2          [-1, 3, 224, 224]               6
         LeakyReLU-3          [-1, 3, 224, 224]               0
 Conv_BN_LeakyReLU-4          [-1, 3, 224, 224]               0
            Conv2d-5          [-1, 3, 112, 112]              84
       BatchNorm2d-6          [-1, 3, 112, 112]               6
         LeakyReLU-7          [-1, 3, 112, 112]               0
 Conv_BN_LeakyReLU-8          [-1, 3, 112, 112]               0
            Conv2d-9          [-1, 6, 112, 112]             168
      BatchNorm2d-10          [-1, 6, 112, 112]              12
        LeakyReLU-11          [-1, 6, 112, 112]               0
Conv_BN_LeakyReLU-12          [-1, 6, 112, 112]               0
           Conv2d-13            [-1, 6, 56, 56]             330
      BatchNorm2d-14            [-1, 6, 56, 56]              12
        LeakyReLU-15            [-1, 6, 56, 56]               0
Conv_BN_LeakyReLU-16            [-1, 6, 56, 56]               0
           Conv2d-17           [-1, 12, 56, 56]             660
      BatchNorm2d-18           [-1, 12, 56, 56]              24
        LeakyReLU-19           [-1, 12, 56, 56]               0
Conv_BN_LeakyReLU-20           [-1, 12, 56, 56]               0
           Conv2d-21           [-1, 12, 28, 28]           1,308
      BatchNorm2d-22           [-1, 12, 28, 28]              24
        LeakyReLU-23           [-1, 12, 28, 28]               0
Conv_BN_LeakyReLU-24           [-1, 12, 28, 28]               0
           Conv2d-25           [-1, 25, 28, 28]           2,725
      BatchNorm2d-26           [-1, 25, 28, 28]              50
        LeakyReLU-27           [-1, 25, 28, 28]               0
Conv_BN_LeakyReLU-28           [-1, 25, 28, 28]               0
           Conv2d-29           [-1, 25, 14, 14]           5,650
      BatchNorm2d-30           [-1, 25, 14, 14]              50
        LeakyReLU-31           [-1, 25, 14, 14]               0
Conv_BN_LeakyReLU-32           [-1, 25, 14, 14]               0
           Conv2d-33           [-1, 51, 14, 14]          11,526
      BatchNorm2d-34           [-1, 51, 14, 14]             102
        LeakyReLU-35           [-1, 51, 14, 14]               0
Conv_BN_LeakyReLU-36           [-1, 51, 14, 14]               0
           Conv2d-37             [-1, 51, 7, 7]          23,460
      BatchNorm2d-38             [-1, 51, 7, 7]             102
        LeakyReLU-39             [-1, 51, 7, 7]               0
Conv_BN_LeakyReLU-40             [-1, 51, 7, 7]               0
     DarkNet_Tiny-41  [[-1, 12, 28, 28], [-1, 25, 14, 14], [-1, 51, 7, 7]]               0
           Conv2d-42             [-1, 51, 7, 7]          23,460
      BatchNorm2d-43             [-1, 51, 7, 7]             102
        LeakyReLU-44             [-1, 51, 7, 7]               0
           Conv2d-45             [-1, 51, 7, 7]               0
           Conv2d-46             [-1, 51, 7, 7]          23,460
      BatchNorm2d-47             [-1, 51, 7, 7]             102
        LeakyReLU-48             [-1, 51, 7, 7]               0
           Conv2d-49             [-1, 51, 7, 7]               0
           Conv2d-50             [-1, 51, 7, 7]          23,460
      BatchNorm2d-51             [-1, 51, 7, 7]             102
        LeakyReLU-52             [-1, 51, 7, 7]               0
           Conv2d-53             [-1, 51, 7, 7]               0
           Conv2d-54             [-1, 65, 7, 7]           3,380
================================================================
Total params: 120,449
Trainable params: 120,449
Non-trainable params: 0
----------------------------------------------------------------
Input size (MB): 0.57
Forward/backward pass size (MB): 878932.18
Params size (MB): 0.46
Estimated Total Size (MB): 878933.22
----------------------------------------------------------------
Testing image 1/120....
…
