use cuda
--- Test on custom ...
--- Finished loading model!
--- Pruning starts ...
--- Pruning ends ...
----------------------------------------------------------------
        Layer (type)               Output Shape         Param #
================================================================
            Conv2d-1         [-1, 16, 224, 224]             448
       BatchNorm2d-2         [-1, 16, 224, 224]              32
         LeakyReLU-3         [-1, 16, 224, 224]               0
 Conv_BN_LeakyReLU-4         [-1, 16, 224, 224]               0
            Conv2d-5         [-1, 16, 112, 112]           2,320
       BatchNorm2d-6         [-1, 16, 112, 112]              32
         LeakyReLU-7         [-1, 16, 112, 112]               0
 Conv_BN_LeakyReLU-8         [-1, 16, 112, 112]               0
            Conv2d-9         [-1, 32, 112, 112]           4,640
      BatchNorm2d-10         [-1, 32, 112, 112]              64
        LeakyReLU-11         [-1, 32, 112, 112]               0
Conv_BN_LeakyReLU-12         [-1, 32, 112, 112]               0
           Conv2d-13           [-1, 32, 56, 56]           9,248
      BatchNorm2d-14           [-1, 32, 56, 56]              64
        LeakyReLU-15           [-1, 32, 56, 56]               0
Conv_BN_LeakyReLU-16           [-1, 32, 56, 56]               0
           Conv2d-17           [-1, 64, 56, 56]          18,496
      BatchNorm2d-18           [-1, 64, 56, 56]             128
        LeakyReLU-19           [-1, 64, 56, 56]               0
Conv_BN_LeakyReLU-20           [-1, 64, 56, 56]               0
           Conv2d-21           [-1, 64, 28, 28]          36,928
      BatchNorm2d-22           [-1, 64, 28, 28]             128
        LeakyReLU-23           [-1, 64, 28, 28]               0
Conv_BN_LeakyReLU-24           [-1, 64, 28, 28]               0
           Conv2d-25          [-1, 128, 28, 28]          73,856
      BatchNorm2d-26          [-1, 128, 28, 28]             256
        LeakyReLU-27          [-1, 128, 28, 28]               0
Conv_BN_LeakyReLU-28          [-1, 128, 28, 28]               0
           Conv2d-29          [-1, 128, 14, 14]         147,584
      BatchNorm2d-30          [-1, 128, 14, 14]             256
        LeakyReLU-31          [-1, 128, 14, 14]               0
Conv_BN_LeakyReLU-32          [-1, 128, 14, 14]               0
           Conv2d-33          [-1, 256, 14, 14]         295,168
      BatchNorm2d-34          [-1, 256, 14, 14]             512
        LeakyReLU-35          [-1, 256, 14, 14]               0
Conv_BN_LeakyReLU-36          [-1, 256, 14, 14]               0
           Conv2d-37            [-1, 256, 7, 7]         590,080
      BatchNorm2d-38            [-1, 256, 7, 7]             512
        LeakyReLU-39            [-1, 256, 7, 7]               0
Conv_BN_LeakyReLU-40            [-1, 256, 7, 7]               0
     DarkNet_Tiny-41  [[-1, 64, 28, 28], [-1, 128, 14, 14], [-1, 256, 7, 7]]               0
           Conv2d-42            [-1, 256, 7, 7]         590,080
      BatchNorm2d-43            [-1, 256, 7, 7]             512
        LeakyReLU-44            [-1, 256, 7, 7]               0
           Conv2d-45            [-1, 256, 7, 7]               0
           Conv2d-46            [-1, 256, 7, 7]         590,080
      BatchNorm2d-47            [-1, 256, 7, 7]             512
        LeakyReLU-48            [-1, 256, 7, 7]               0
           Conv2d-49            [-1, 256, 7, 7]               0
           Conv2d-50            [-1, 256, 7, 7]         590,080
      BatchNorm2d-51            [-1, 256, 7, 7]             512
        LeakyReLU-52            [-1, 256, 7, 7]               0
           Conv2d-53            [-1, 256, 7, 7]               0
           Conv2d-54             [-1, 65, 7, 7]          16,705
================================================================
Total params: 2,969,233
Trainable params: 2,969,233
Non-trainable params: 0
----------------------------------------------------------------
Input size (MB): 0.57
Forward/backward pass size (MB): 120472636.51
Params size (MB): 11.33
Estimated Total Size (MB): 120472648.41
----------------------------------------------------------------
…
